# parameters
nc: 1  # number of classes
scales: # model compound scaling constants, i.e. 'model=yolov8n.yaml' will call yolov8.yaml with scale 'n'
  # [depth, width, max_channels]
  n: [0.33, 0.25, 1024] # YOLOv8n summary: 225 layers,  3157200 parameters,  3157184 gradients,   8.9 GFLOPs
  s: [0.33, 0.50, 1024] # YOLOv8s summary: 225 layers, 11166560 parameters, 11166544 gradients,  28.8 GFLOPs
  m: [0.67, 0.75, 512] # YOLOv8m summary: 295 layers, 25902640 parameters, 25902624 gradients,  79.3 GFLOPs
  l: [1.00, 1.00, 512] # YOLOv8l summary: 365 layers, 43691520 parameters, 43691504 gradients, 165.7 GFLOPs
  x: [1.33, 1.25, 512] # YOLOv8x summary: 365 layers, 68229648 parameters, 68229632 gradients, 258.5 GFLOPs
scale: s

# anchors
anchors:
  - [10,13, 16,30, 33,23]  # P3/8
  - [30,61, 62,45, 59,119]  # P4/16
  - [116,90, 156,198, 373,326]  # P5/32

# YOLOv5 backbone
backbone:
  # [from, number, module, args]
  # Two Stream
  [
   [-1, 1, Conv, [64, 6, 2, 2]], # 0-P1/2
   [-1, 1, Conv, [128, 3, 2]],  # 1-P2/4
   [-1, 3, C3, [128]],
   [-1, 1, Conv, [256, 3, 2]],  # 3-P3/8
   [-1, 6, C3, [256]],
   [-1, 1, Conv, [512, 3, 2]],  # 5-P4/16
   [-1, 9, C3, [512]],
   [-1, 1, Conv, [1024, 3, 2]],  # 7-P5/32
   [-1, 3, C3, [1024, False]],
   [-1, 1, SPPF, [1024, 5]], # 9

   [-4, 1, Conv, [64, 6, 2, 2]],  # 10-P1/2
   [-1, 1, Conv, [128, 3, 2]],  # 11-P2/4
   [-1, 3, C3, [128]],
   [-1, 1, Conv, [256, 3, 2]],  # 13-P3/8
   [-1, 6, C3, [256]],
   [-1, 1, Conv, [512, 3, 2]],  # 15-P4/16
   [-1, 9, C3, [512]],
   [-1, 1, Conv, [1024, 3, 2]],  # 17-P5/32
   [-1, 3, C3, [1024, False]],
   [-1, 1, SPPF, [1024, 5]], # 19

    ######### Add Block #############
   [[4,14], 1, Add, [1]],    # 20 two stream fuse
   [[6,16], 1, Add, [1]],    # 21 two stream fuse
   [[9,19], 1, Add, [1]],    # 22 two stream fuse
  ]


# YOLOv5 head
head:
  [[-1, 1, Conv, [512, 1, 1]],          # 23
   [-1, 1, nn.Upsample, [None, 2, 'nearest']],  # 24
   [[-1,21], 1, Concat, [1]],           # 25 cat backbone P4
   [-1, 3, C3, [512, False]],           # 26

   [-1, 1, Conv, [256, 1, 1]],          # 27
   [-1, 1, nn.Upsample, [None, 2, 'nearest']],  # 28
   [[-1,20], 1, Concat, [1]],           # 29 cat backbone P3
   [-1, 3, C3, [256, False]],           # 30 (P3/8-small)

   [-1, 1, Conv, [256, 3, 2]],          # 31
   [[-1,27], 1, Concat, [1]],           # 32 cat head P4
   [-1, 3, C3, [512, False]],           # 33 (P4/16-medium)

   [-1, 1, Conv, [512, 3, 2]],          # 34
   [[-1,23], 1, Concat, [1]],           # 35 cat head P5
   [-1, 3, C3, [1024, False]],          # 36 (P5/32-large)

   [[30, 33, 36], 1, Detect, [nc, anchors]],    # Detect(P3, P4, P5)
  ]
